saved_models/FFnet_test_e199.pth (torch, 4737 bytes, 9 tensors)

network.0.weight f4 [16, 2]
00000000: f443 ebbd 1b7d d0be 2acb fc3d ed99 0bbf
00000010: e415 90be 4870 9e3e 819c cebe 5c33 273f
00000020: ae27 6bbf 20d7 663f 1d1c 343e e43e 82be
00000030: b2d8 fa3e 121e 243c 9d05 ef3e 14cf 79be
00000040: dc12 2d3f bff8 e0be ff9a 293f 2a75 5abe
00000050: 1dc5 03bf bcf3 713f 5722 12bf 4e71 733f
00000060: 2a7c 5c3f 0cc8 5ebf c9da 0ebb 06d7 883e
00000070: ae44 56be 289d 17be 6acf 453f 1f50 023d
-0.114875704 -0.40720448 0.12343438 -0.5453175 -0.281417 0.3094504 -0.40353778 0.65312743
-0.9185742 0.90172005 0.1758885 -0.25438607 0.4899345 0.010016935 0.4668397 -0.243954
0.676069 -0.43939778 0.6625213 -0.21333757 -0.51472646 0.94512534 -0.5708365 0.95094764
0.8612696 -0.87024 -0.0021797887 0.2672655 -0.20924637 -0.14806044 0.77269614 0.03181469

network.0.bias f4 [16]
00000000: 91bc e1bd 103f 64bc d5f3 d93e f45c 2cbf
00000010: 1015 663e 8d12 1dbf ad72 563e 1c05 a73e
00000020: c3d8 723e 7471 96bd 43ea 46be 13b2 23be
00000030: 25a5 5a3e bf3b 413e d539 c3be b36d cabe
-0.11022294 -0.013931051 0.42568842 -0.67329335 0.22468972 -0.6135643 0.20942183 0.32621086
0.237155 -0.07345858 -0.19425301 -0.15985899 0.2135206 0.18870448 -0.3813006 -0.3953682

network.2.weight f4 [1, 16]
00000000: a091 29bc b444 3ebe 084a b13b 40d3 6d3c
00000010: e364 9d3f b863 803d 9a21 7cbe c7d7 22be
00000020: 191b 7dbe ce37 24bf 54a8 803f 2107 f23f
00000030: 9f33 dabf b8cf 313e 5ece 74be 5d0c cebe
-0.010349661 -0.18580896 0.0054104365 0.014515698 1.2296413 0.0626902 -0.24622193 -0.15902625
-0.24717368 -0.6414765 1.005137 1.8908426 -1.7047004 0.17364395 -0.23906848 -0.40243807

exp_avg f4 [16, 2]
00000000: 0000 0000 0000 0000 7283 013b 1d38 fd3a
00000010: 3324 72bc 2196 6cbc e388 1a3c f002 173c
00000020: 0000 0000 0000 0000 0000 0000 0000 0000
00000030: 53a3 d7bc 6fb2 d2bc 0000 0000 0000 0000
00000040: 0000 0000 0000 0000 62e5 cdbb 6529 c9bb
00000050: 387e b7bc 4e49 b3bc 0000 0000 0000 0000
00000060: 0000 0000 0000 0000 6386 b23b 6177 ae3b
00000070: 0000 0000 0000 0000 0000 0000 0000 0000
0.0 0.0 0.0019762185 0.0019319091 -0.014779138 -0.01444009 0.00943205 0.009217009
0.0 0.0 0.0 0.0 -0.026322996 -0.02571985 0.0 0.0
0.0 0.0 -0.006283448 -0.006138968 -0.022399053 -0.02188554 0.0 0.0
0.0 0.0 0.005448149 0.0053242897 0.0 0.0 0.0 0.0

exp_avg_sq f4 [16, 2]
00000000: 0000 0000 0000 0000 5fc0 af38 31c2 bb38
00000010: 9af5 913b 57d7 9b3b 1efb ed3a 4126 fe3a
00000020: 0000 0000 0000 0000 cdd7 dd30 1802 a230
00000030: 2457 6a3c 3441 7a3c 0000 0000 0000 0000
00000040: 0000 0000 0000 0000 10b3 4e3a bd8f 5c3a
00000050: c3d0 2b3c df84 373c 0000 0000 0000 0000
00000060: 0000 0000 0000 0000 e4be 1d3a f17b 283a
00000070: eef7 a12f bd80 4a2f 0000 0000 0000 0000
0.0 0.0 8.380482e-05 8.953026e-05 0.004454327 0.004755895 0.0018156504 0.0019390063
0.0 0.0 1.6141201e-09 1.1787646e-09 0.0143030025 0.015274335 0.0 0.0
0.0 0.0 0.0007884959 0.00084137527 0.010486784 0.0112011125 0.0 0.0
0.0 0.0 0.00060175196 0.000642716 2.9461894e-10 1.841753e-10 0.0 0.0

exp_avg f4 [16]
00000000: 0000 0000 9add 213b c057 97bc 5f29 413c
00000010: 0000 0000 0000 0000 bcc6 06bd 0000 0000
00000020: 0000 0000 83b1 00bc 205f e5bc 0000 0000
00000030: 0000 0000 2d24 df3b 0000 0000 0000 0000
0.0 0.0024698735 -0.01847446 0.011789649 0.0 0.0 -0.03290437 0.0
0.0 -0.007854822 -0.02799946 0.0 0.0 0.0068097324 0.0 0.0

exp_avg_sq f4 [16]
00000000: 0000 0000 2a40 fd38 d72e d23b 7960 2b3b
00000010: 0000 0000 0245 ff30 e3bb a83c 0000 0000
00000020: 0000 0000 30ce 943a 196e 773c 0000 0000
00000030: 0000 0000 cd31 633a d69c a72f 0000 0000
0.0 0.000120759316 0.006414275 0.0026150031 0.0 1.8573305e-09 0.020597404 0.0
0.0 0.0011352953 0.015101933 0.0 0.0 0.00086667837 3.0488562e-10 0.0

exp_avg f4 [1, 16]
00000000: 0000 0000 6e80 503c 6a55 cd3b 76ee 4a3c
00000010: 0000 0000 0000 0000 bcf6 413b 0000 0000
00000020: 0000 0000 4efb c33b e447 613b 0000 0000
00000030: 0000 0000 1b30 b23c 0000 0000 0000 0000
0.0 0.0127259325 0.0062662857 0.012385955 0.0 0.0 0.0029596528 0.0
0.0 0.0059808856 0.0034375126 0.0 0.0 0.021751454 0.0 0.0

exp_avg_sq f4 [1, 16]
00000000: 0000 0000 61a9 583b 28f0 483a 22ef 5f3b
00000010: 0000 0000 9755 b831 8b3f 6c39 0000 0000
00000020: 0000 0000 b110 2e3a 1fd2 a539 0000 0000
00000030: 0000 0000 e664 283c e53a 5a2b 0000 0000
0.0 0.0033059942 0.00076651806 0.0034169634 0.0 5.3648352e-09 0.00022530385 0.0
0.0 0.00066400605 0.00031627805 0.0 0.0 0.010277962 7.753089e-13 0.0
