saved_models/FFnet_test_e99.pth (torch, 4737 bytes, 9 tensors)

network.0.weight f4 [16, 2]
000000 bd aa 25 bf 88 a1 ca bd 98 df f5 be 37 27 b2 be
       -0.6471365 -0.09894091 -0.4802215 -0.34795544
000010 7b 5c 31 bf d1 0c 28 3d 8b 2e 62 3e 4f 3f 02 3f
       -0.6928174 0.041027848 0.22088067 0.5087785
000020 82 0d 9f 3c 11 b5 2f bf 39 aa 18 3f 3c 25 b7 be
       0.01941562 -0.6863566 0.5963474 -0.35770595
000030 3d 0b a6 bd c9 4b d2 3e 86 a7 cb 3e 54 f3 8e 3e
       -0.08107612 0.41073444 0.39776248 0.2792002
000040 36 8a c3 bc af e1 12 bf 1b a6 29 bf 9a 16 15 3f
       -0.023869615 -0.57375616 -0.6626908 0.5823761
000050 3e 74 22 3e 20 76 cf 3d 88 b0 31 3f 6b a8 92 be
       0.15864655 0.101299524 0.6940999 -0.28644118
000060 f2 88 ea be e1 96 ca 3d 26 39 ef 3e 81 36 15 3e
       -0.45807606 0.09892059 0.46723288 0.14571573
000070 49 f0 93 be 4f c8 2d bf f9 b8 6c 3e ca 00 5c bd
       -0.2889426 -0.6788377 0.23117436 -0.05371169

network.0.bias f4 [16]
000000 65 0b 1a 3f c6 31 fa bd 73 0d 04 3e 72 ec e2 be
       0.60173637 -0.12216525 0.12895755 -0.44321018
000010 78 55 12 bf ce cc 81 bd 40 88 a0 3d c5 b5 f4 bd
       -0.57161665 -0.063378915 0.078384876 -0.11948732
000020 14 a2 ba 3e b3 9b c7 3e 45 5f 66 bd 4f 4e e4 be
       0.3645178 0.38985977 -0.0562432 -0.44590995
000030 9c da 84 be 99 1e c3 bd 9b ca c8 be 59 d2 01 bf
       -0.25948036 -0.095273204 -0.39217076 -0.5071159

network.2.weight f4 [1, 16]
000000 48 50 87 bd e0 ab f0 bd ae 8d 46 be 7a ce 34 be
       -0.06607109 -0.117515326 -0.19389984 -0.1765689
000010 18 0c 35 be 44 f6 87 3d ec 6d 6a be f0 0b 4f bd
       -0.17680395 0.06638768 -0.22893494 -0.050548494
000020 b0 da 07 bd d4 e7 47 be 76 87 05 be 34 15 90 3d
       -0.03316754 -0.19522029 -0.13039955 0.07035294
000030 de 00 44 be 28 7e 06 3e 1c 02 9a bd 06 cf 5f 3e
       -0.19140956 0.13134062 -0.075199336 0.21856317

exp_avg f4 [16, 2]
000000 62 1c c0 ba 6e f7 33 3c 00 00 00 00 00 00 00 00
       -0.0014656896 0.010984285 0.0 0.0
000010 d1 3a 93 3b 1a 12 d9 bc 00 00 00 00 00 00 00 00
       0.0044930954 -0.02649789 0.0 0.0
000020 00 00 00 00 00 00 00 00 00 00 00 00 00 00 00 00
       0.0 0.0 0.0 0.0
000030 00 00 00 00 00 00 00 00 b2 12 ed ba f8 ba 35 3c
       0.0 0.0 -0.0018087237 0.01109194
000040 00 00 00 00 00 00 00 00 00 00 00 00 00 00 00 00
       0.0 0.0 0.0 0.0
000050 00 00 00 00 00 00 00 00 3a 0b cc 3b a1 5d 3f bd
       0.0 0.0 0.0062269242 -0.04672015
000060 00 00 00 00 00 00 00 00 00 00 00 00 00 00 00 00
       0.0 0.0 0.0 0.0
000070 e7 ba 6f 3a 81 35 8e bb 00 00 00 00 00 00 00 00
       0.0009144977 -0.0043398743 0.0 0.0

exp_avg_sq f4 [16, 2]
000000 7a d9 25 3b 93 db 01 3b 00 00 00 00 00 00 00 00
       0.0025306628 0.0019814714 0.0 0.0
000010 eb c5 d4 3c a8 07 ae 3c 00 00 00 00 00 00 00 00
       0.02597328 0.021243885 0.0 0.0
000020 00 00 00 00 00 00 00 00 00 00 00 00 00 00 00 00
       0.0 0.0 0.0 0.0
000030 00 00 00 00 00 00 00 00 2a 8f c9 3b b5 6d a5 3b
       0.0 0.0 0.0061510997 0.0050484785
000040 00 00 00 00 00 00 00 00 00 00 00 00 00 00 00 00
       0.0 0.0 0.0 0.0
000050 00 00 00 00 00 00 00 00 0d 7d 37 3d 97 5c 1a 3d
       0.0 0.0 0.044796992 0.037685957
000060 00 00 00 00 00 00 00 00 00 00 00 00 00 00 00 00
       0.0 0.0 0.0 0.0
000070 82 16 50 3b 07 ec 23 3b 00 00 00 00 00 00 00 00
       0.0031751697 0.002501251 0.0 0.0

exp_avg f4 [16]
000000 c7 45 e1 3b 00 00 00 00 5a 1f 84 bc 00 00 00 00
       0.006874773 0.0 -0.01612823 0.0
000010 00 00 00 00 00 00 00 00 00 00 00 00 60 5c de 3b
       0.0 0.0 0.0 0.0067859143
000020 00 00 00 00 00 00 00 00 00 00 00 00 0b 90 ef bc
       0.0 0.0 0.0 -0.02924349
000030 00 00 00 00 00 00 00 00 bb 87 27 bb 00 00 00 00
       0.0 0.0 -0.002556308 0.0

exp_avg_sq f4 [16]
000000 df 7b 44 3b 00 00 00 00 7c f7 00 3d 00 00 00 00
       0.002998106 0.0 0.03148602 0.0
000010 00 00 00 00 00 00 00 00 00 00 00 00 96 c6 f4 3b
       0.0 0.0 0.0 0.0074699624
000020 00 00 00 00 00 00 00 00 00 00 00 00 7c ff 61 3d
       0.0 0.0 0.0 0.05517529
000030 00 00 00 00 00 00 00 00 a3 48 77 3b 00 00 00 00
       0.0 0.0 0.0037732504 0.0

exp_avg f4 [1, 16]
000000 66 03 10 3d 00 00 00 00 a9 8d 3f bd 00 00 00 00
       0.03515949 0.0 -0.046765957 0.0
000010 00 00 00 00 00 00 00 00 00 00 00 00 b6 24 92 bd
       0.0 0.0 0.0 -0.07135908
000020 00 00 00 00 00 00 00 00 00 00 00 00 b8 0b 82 bd
       0.0 0.0 0.0 -0.063498914
000030 00 00 00 00 00 00 00 00 40 9f 84 bb 00 00 00 00
       0.0 0.0 -0.0040473044 0.0

exp_avg_sq f4 [1, 16]
000000 f9 09 bd 3b 00 00 00 00 bc 2f 84 3c 00 00 00 00
       0.005769011 0.0 0.016136043 0.0
000010 00 00 00 00 00 00 00 00 00 00 00 00 9a b2 87 3f
       0.0 0.0 0.0 1.060138
000020 00 00 00 00 00 00 00 00 00 00 00 00 e5 91 a5 3b
       0.0 0.0 0.0 0.0050527924
000030 00 00 00 00 00 00 00 00 e7 3d ba 3e 00 00 00 00
       0.0 0.0 0.36375353 0.0
