saved_models/FFnetProfile_test_e49.pth (torch, 165953 bytes, 9 tensors)

network.0.weight f4 [16, 2]
-0.6471365 -0.09894091 -0.4802215 -0.34795544 -0.6928174 0.041027848 0.22088067 0.5087785
0.01941562 -0.6863566 0.5963474 -0.35770595 -0.08107612 0.41073444 0.39776248 0.2792002
-0.023869615 -0.57375616 -0.6626908 0.5823761 0.15864655 0.101299524 0.6940999 -0.28644118
-0.45807606 0.09892059 0.46723288 0.14571573 -0.2889426 -0.6788377 0.23117436 -0.05371169
00000000: bdaa 25bf 88a1 cabd 98df f5be 3727 b2be
00000010: 7b5c 31bf d10c 283d 8b2e 623e 4f3f 023f
00000020: 820d 9f3c 11b5 2fbf 39aa 183f 3c25 b7be
00000030: 3d0b a6bd c94b d23e 86a7 cb3e 54f3 8e3e
00000040: 368a c3bc afe1 12bf 1ba6 29bf 9a16 153f
00000050: 3e74 223e 2076 cf3d 88b0 313f 6ba8 92be
00000060: f288 eabe e196 ca3d 2639 ef3e 8136 153e
00000070: 49f0 93be 4fc8 2dbf f9b8 6c3e ca00 5cbd

network.0.bias f4 [16]
0.60173637 -0.12216525 0.12895755 -0.44321018 -0.57161665 -0.063378915 0.078384876 -0.11948732
0.3645178 0.38985977 -0.0562432 -0.44590995 -0.25948036 -0.095273204 -0.39217076 -0.5071159
00000000: 650b 1a3f c631 fabd 730d 043e 72ec e2be
00000010: 7855 12bf cecc 81bd 4088 a03d c5b5 f4bd
00000020: 14a2 ba3e b39b c73e 455f 66bd 4f4e e4be
00000030: 9cda 84be 991e c3bd 9bca c8be 59d2 01bf

network.2.weight f4 [1, 16]
-0.06607109 -0.117515326 -0.19389984 -0.1765689 -0.17680395 0.06638768 -0.22893494 -0.050548494
-0.03316754 -0.19522029 -0.13039955 0.07035294 -0.19140956 0.13134062 -0.075199336 0.21856317
00000000: 4850 87bd e0ab f0bd ae8d 46be 7ace 34be
00000010: 180c 35be 44f6 873d ec6d 6abe f00b 4fbd
00000020: b0da 07bd d4e7 47be 7687 05be 3415 903d
00000030: de00 44be 287e 063e 1c02 9abd 06cf 5f3e

exp_avg f4 [100, 200]
0.0 0.0 0.0 0.0 0.0 0.0 2.3855366e-17 0.0
1.3344443e-16 6.450588e-17 6.450588e-17 4.418064e-17 1.494973e-15 4.878314e-15 6.578169e-07 6.578169e-07
2.1927228e-07 6.5781683e-06 2.2146498e-05 4.1223182e-05 6.161551e-05 7.542966e-05 8.2446364e-05 9.688827e-05
0.00011408987 0.00013053592 0.00017329244 0.00015683792 0.00016706227 0.00017806192 0.00020055863 0.00022235805
0.00022935 0.00027068783 0.00028790167 0.0003097167 0.0003317066 0.00033879912 0.0003831623 0.00037914145
0.000405519 0.00042752674 0.0004177973 0.000462136 0.00044445202 0.00047932856 0.00047638838 0.00048284288
0.0004643043 0.00047334077 0.0004597432 0.00047048402 0.00043328825 0.00042790538 0.00042739982 0.00039981384
0.00041808386 0.00038211356 0.00038565823 0.0003570818 0.00033108672 0.00033045423 0.000270159 0.0002647408
0.00023662421 0.00020018268 0.00017241781 0.00016339698 0.0001350344 9.88075e-05 8.0636724e-05 6.968409e-05
3.1473366e-05 4.270795e-06 -3.3069726e-05 -4.4731245e-05 -7.5335076e-05 -8.764753e-05 -0.00010079634 -9.751321e-05
-9.608949e-05 -9.237473e-05 -8.35797e-05 -7.7116194e-05 -7.302645e-05 -6.157354e-05 -5.1424675e-05 -3.5549365e-05
-2.8023625e-05 -1.5591826e-05 -1.0715838e-05 -1.0375652e-05 -7.0304964e-06 -1.7009265e-06 0.0 0.0
-5.669755e-08 -1.7009263e-07 -5.669755e-08 2.1927228e-07 0.0 -5.669755e-08 4.0650497e-17 2.3855366e-17
0.0 0.0 2.0325249e-17 0.0 0.0 4.432639e-18 1.4596108e-15 3.6377863e-15
2.1927228e-07 2.1927228e-07 9.946633e-15 1.6833245e-14 2.6058731e-14 3.2573794e-14 -5.6697512e-08 9.428708e-06
8.77089e-06 1.6664693e-05 2.6970487e-05 4.9060294e-05 7.471515e-05 0.00010437359 0.00013309826 0.00015634112
0.00018375018 0.000228274 0.00025284005 0.0002714932 0.0002895268 0.0003166605 0.00033846396 0.00036295204
0.00037565475 0.00040235335 0.00042864817 0.0004382939 0.0004608639 0.0004909669 0.0004969862 0.0005267847
0.00053242565 0.0005296468 0.0005436016 0.000555443 0.00055840745 0.00053123746 0.0005357416 0.00054150354
0.00052860065 0.00049245544 0.00051156967 0.00047189364 0.00048033532 0.0004535806 0.0004467074 0.0004310194
0.00040613514 0.00037120664 0.0003567989 0.00033262567 0.0002957162 0.00027669087 0.0002566422 0.00022864644
0.00017794536 0.00015063753 0.0001477945 0.00012620621 0.00014309236 0.00011952311 7.9611484e-05 7.951188e-05
6.1005612e-05 4.1743795e-05 3.37933e-05 2.5366036e-05 2.1001899e-05 6.1239353e-07 -1.0718656e-05 -1.133951e-05
-9.029945e-06 -8.4930425e-06 -1.0375652e-05 -1.0942627e-05 -4.932687e-06 -1.5308339e-06 -5.669755e-08 0.0
-1.133951e-07 -1.7009263e-07 -1.133951e-07 2.1927228e-07 0.0 0.0 0.0 0.0
0.0 0.0 0.0 0.0 0.0 0.0 0.0 0.0
0.0 0.0 0.0 0.0 0.0 0.0 0.0 0.0
0.0 0.0 0.0 0.0 0.0 0.0 0.0 1.7873791e-16
2.4576465e-16 8.936889e-16 3.1837673e-15 5.518527e-15 7.305908e-15 9.372555e-15 1.1852543e-14 1.2612186e-14
1.4388396e-14 1.56619e-14 1.663378e-14 1.7951967e-14 2.0186201e-14 2.0387295e-14 2.257682e-14 2.4319534e-14
2.491158e-14 2.6062203e-14 2.784958e-14 2.8229389e-14 2.97263e-14 3.0631205e-14 3.1815306e-14 3.287657e-14
3.423946e-14 3.526721e-14 3.626142e-14 3.6607737e-14 3.7758347e-14 3.8473294e-14 3.95234e-14 4.024951e-14
00000000: 0000 0000 0000 0000 0000 0000 0000 0000
00000010: 0000 0000 0000 0000 e406 dc23 0000 0000
00000020: d8d9 1925 8dbd 9424 8dbd 9424 4bbf 4b24
00000030: c572 d726 81c2 af27 d594 3035 d594 3035
00000040: 1b71 6b34 09ba dc36 3ec7 b937 0ee7 2c38
00000050: 9337 8138 fe2f 9e38 0ee7 ac38 7e30 cb38
00000060: 8843 ef38 78e0 0839 d6b5 3539 dc74 2439
00000070: 702d 2f39 22b6 3a39 0c4d 5239 c928 6939
00000080: ac7d 7039 1beb 8d39 82f1 9639 7961 a239
00000090: e8e8 ad39 d9a0 b139 2ce3 c839 81c7 c639
000000a0: d79b d439 ab25 e039 ce0b db39 d84a f239
000000b0: 5705 e939 644e fb39 c4c3 f939 1326 fd39
000000c0: de6d f339 b92a f839 b009 f139 4cab f639
000000d0: f72a e339 7d58 e039 a214 e039 1b9e d139
000000e0: 4432 db39 6a56 c839 2c32 ca39 b536 bb39
000000f0: b595 ad39 d140 ad39 21a4 8d39 e9cc 8a39
00000100: 541e 7839 21e8 5139 0ecb 3439 8b55 2b39
00000110: 0598 0d39 df36 cf38 831b a938 5c23 9238
00000120: 4502 0438 da4d 8f36 59b4 0ab8 cf9d 3bb8
00000130: 36fd 9db8 69cf b7b8 9f62 d3b8 0280 ccb8
00000140: a783 c9b8 4eb9 c1b8 8247 afb8 71b9 a1b8
00000150: c725 99b8 0b21 81b8 d3b0 57b8 d71a 15b8
00000160: 4714 ebb7 31cb 82b7 2cc8 33b7 1613 2eb7
00000170: 81e7 ebb6 644b e4b5 0000 0000 0000 0000
00000180: 9e83 73b3 b5a2 36b4 9e83 73b3 1b71 6b34
00000190: 0000 0000 9e83 73b3 a377 3b24 e406 dc23
000001a0: 0000 0000 0000 0000 a377 bb23 0000 0000
000001b0: 0000 0000 1789 a322 225a d226 a810 8327
000001c0: 1b71 6b34 1b71 6b34 c02e 3328 d29e 9728
000001d0: 58b7 ea28 07b3 1229 9383 73b3 fe2f 1e37
000001e0: b026 1337 28cb 8b37 ae3e e237 17c6 4d38
000001f0: 64b0 9c38 25e3 da38 4b90 0b39 80ef 2339
00000200: 10ad 4039 d65c 6f39 9e8f 8439 3357 8e39
00000210: a1cb 9739 7405 a639 dd73 b139 994a be39
00000220: 87f3 c439 f4f2 d239 2fbc e039 d0ca e539
00000230: 1ba0 f139 3bb4 003a 2e48 023a ec17 0a3a
00000240: 7b92 0b3a ffd7 0a3a 7c80 0e3a 269b 113a
00000250: 1762 123a be42 0b3a 0371 0c3a b0f3 0d3a
00000260: ca91 0a3a 2018 013a dc1a 063a 7e68 f739
00000270: 84d5 fb39 8fce ed39 0d34 ea39 72fa e139
00000280: 89ee d439 839e c239 bd10 bb39 4364 ae39
00000290: 5b0a 9b39 d210 9139 ef8d 8639 d0c0 6f39
000002a0: d896 3a39 74f4 1d39 49f9 1a39 3956 0439
000002b0: 100b 1639 7ba8 fa38 17f5 a638 9ebf a638
000002c0: 47e0 7f38 0f16 2f38 48bd 0d38 26c9 d437
000002d0: 3c2d b037 5d63 2435 47d4 33b7 d33e 3eb7
000002e0: 527f 17b7 577d 0eb7 1613 2eb7 3a96 37b7
000002f0: 7583 a5b6 0d77 cdb5 9e83 73b3 0000 0000
00000300: 9e83 f3b3 b5a2 36b4 9e83 f3b3 1b71 6b34
00000310: 0000 0000 0000 0000 0000 0000 0000 0000
00000320: 0000 0000 0000 0000 0000 0000 0000 0000
00000330: 0000 0000 0000 0000 0000 0000 0000 0000
00000340: 0000 0000 0000 0000 0000 0000 0000 0000
00000350: 0000 0000 0000 0000 0000 0000 0000 0000
00000360: 0000 0000 0000 0000 0000 0000 0000 0000
00000370: 0000 0000 0000 0000 0000 0000 1f12 4e25
00000380: 76ac 8d25 4dcb 8026 246a 6527 6dd3 c627
00000390: 8e9c 0328 48d7 2828 3584 5528 7133 6328
000003a0: 6299 8128 e211 8d28 e3d2 9528 6bb2 a128
000003b0: 36d2 b528 e7a1 b728 9a5a cb28 070d db28
000003c0: 3162 e028 59bf ea28 c2d8 fa28 8a44 fe28
000003d0: 17e0 0529 60f3 0929 8d48 0f29 1b10 1429
000003e0: 6933 1a29 53d4 1e29 924e 2329 d9dd 2429
000003f0: 690c 2a29 b044 2d29 61ff 3129 8744 3529

exp_avg_sq f4 [100, 200]
0.0 0.0 0.0 0.0 0.0 0.0 8.4375714e-13 0.0
1.2199584e-11 3.0397568e-12 3.0397568e-12 1.3927567e-12 2.596834e-09 1.9262822e-08 6.438664e-08 7.497667e-08
6.703149e-08 9.637549e-08 1.3441758e-07 1.9319016e-07 2.9647398e-07 4.98263e-07 6.870185e-07 6.674623e-07
8.478892e-07 9.799e-07 1.4459544e-06 1.8607502e-06 2.4747717e-06 3.2524729e-06 4.158243e-06 4.651971e-06
5.858782e-06 6.7810593e-06 7.596849e-06 8.5875645e-06 9.735533e-06 9.93405e-06 1.1479236e-05 1.2460612e-05
1.375236e-05 1.4363937e-05 1.5727039e-05 1.5930907e-05 1.6801774e-05 1.7882274e-05 1.8057188e-05 1.8878765e-05
1.9786467e-05 2.0330954e-05 2.0783322e-05 2.1072792e-05 2.1289618e-05 2.1499727e-05 2.2181723e-05 2.2234346e-05
2.0565645e-05 2.1521964e-05 1.9997278e-05 2.0234216e-05 2.0053105e-05 1.891493e-05 1.9055751e-05 1.8127577e-05
1.71561e-05 1.6208167e-05 1.5622298e-05 1.5158325e-05 1.4288855e-05 1.28194215e-05 1.1666281e-05 1.13502965e-05
1.081217e-05 9.719509e-06 9.691922e-06 8.207051e-06 8.039181e-06 6.3353036e-06 6.307453e-06 5.1966776e-06
4.462332e-06 3.8113255e-06 2.8978511e-06 2.4680612e-06 2.2006905e-06 1.5645404e-06 1.091294e-06 5.215096e-07
3.3429984e-07 1.0032117e-07 4.7386113e-08 4.442521e-08 2.0397199e-08 1.1939041e-09 0.0 0.0
1.4887822e-12 1.1939048e-11 1.3265609e-12 2.8510001e-13 0.0 1.3265609e-12 2.1960001e-12 8.4375714e-13
0.0 0.0 5.4900003e-13 0.0 0.0 4.055523e-14 3.1396605e-09 9.909069e-09
1.4186412e-08 3.1305802e-08 7.7156436e-08 2.3243737e-07 5.1738124e-07 7.8192653e-07 1.3653699e-06 1.967921e-06
2.660609e-06 3.1404725e-06 4.045167e-06 5.0327744e-06 5.539296e-06 6.211984e-06 7.1824634e-06 8.3642735e-06
8.961585e-06 9.653442e-06 1.0628357e-05 1.1785662e-05 1.2428316e-05 1.4249947e-05 1.4616187e-05 1.5410204e-05
1.6555843e-05 1.5950232e-05 1.715949e-05 1.736933e-05 1.7794908e-05 1.8868637e-05 1.8760784e-05 1.9139985e-05
1.9450868e-05 1.9977104e-05 1.9050132e-05 1.9585157e-05 1.9103443e-05 1.9058543e-05 1.860115e-05 1.811618e-05
1.7655191e-05 1.6595983e-05 1.646238e-05 1.5822363e-05 1.4693935e-05 1.41624405e-05 1.32064815e-05 1.3051288e-05
1.1486863e-05 1.0449595e-05 9.795224e-06 8.6646005e-06 7.729932e-06 6.4316437e-06 5.637831e-06 4.7436506e-06
3.99051e-06 3.419285e-06 3.0876943e-06 2.4039634e-06 1.7385763e-06 1.2540028e-06 1.0194409e-06 6.757465e-07
5.29815e-07 5.143302e-07 5.0557753e-07 4.3894286e-07 2.6223697e-07 1.6030964e-07 1.0267277e-07 5.3062564e-08
3.6997594e-08 3.9712905e-08 4.4425732e-08 4.941305e-08 1.0040737e-08 9.670625e-10 1.8755624e-12 0.0
5.3062437e-12 1.1939048e-11 5.3062437e-12 2.8510001e-13 0.0 0.0 0.0 0.0
0.0 0.0 0.0 0.0 0.0 0.0 0.0 0.0
0.0 0.0 0.0 0.0 0.0 0.0 0.0 0.0
0.0 0.0 0.0 0.0 0.0 0.0 0.0 1.5257261e-10
2.8845762e-10 3.814314e-09 4.840905e-08 1.4544239e-07 2.5491332e-07 4.1952768e-07 6.7091486e-07 7.596689e-07
9.887086e-07 1.1714735e-06 1.3213757e-06 1.539106e-06 1.946046e-06 1.9850086e-06 2.4342742e-06 2.8245781e-06
2.9637836e-06 3.2438932e-06 3.7040863e-06 3.8058101e-06 4.2201373e-06 4.4809663e-06 4.8341144e-06 5.161993e-06
5.5988394e-06 5.9399913e-06 6.279622e-06 6.4001374e-06 6.808793e-06 7.0690826e-06 7.4602303e-06 7.736868e-06
00000000: 0000 0000 0000 0000 0000 0000 0000 0000
00000010: 0000 0000 0000 0000 1c7f 6d2b 0000 0000
00000020: 0b9e 562d 64e7 552c 64e7 552c 5903 c42b
00000030: fd73 3231 6577 a532 ee44 8a33 dc02 a133
00000040: f4f2 8f33 fcf6 ce33 6c54 1034 b56f 4f34
00000050: 132b 9f34 5fc0 0535 8d6b 3835 a92b 3335
00000060: 819a 6335 1c85 8335 9d12 c235 e4be f935
00000070: 4114 2636 0f45 5a36 0987 8b36 2018 9c36
00000080: 8e96 c436 db88 e336 70e8 fe36 4f13 1037
00000090: cc55 2337 6baa 2637 f196 4037 ec0d 5137
000000a0: f0b9 6637 a4fc 7037 8fed 8337 5da3 8537
000000b0: 89f1 8c37 e401 9637 8479 9737 d75d 9e37
000000c0: 1dfb a537 648c aa37 d857 ae37 7ac5 b037
000000d0: 1b97 b237 505a b437 e312 ba37 e583 ba37
000000e0: 6384 ac37 118a b437 d4bf a737 a6bc a937
000000f0: b737 a837 81ab 9e37 ead9 9f37 ad10 9837
00000100: 72ea 8f37 c6f6 8737 a10c 8337 8350 7e37
00000110: 2aba 6f37 ff12 5737 4cba 4337 276d 3e37
00000120: eb65 3537 f910 2337 7d9a 2237 04b1 0937
00000130: 05e0 0637 d893 d436 9ca4 d336 1f5f ae36
00000140: 24bb 9536 13c6 7f36 b478 4236 f8a0 2536
00000150: 93af 1336 33fd d135 9478 9235 defd 0b35
00000160: d279 b334 2570 d733 9585 4b33 09ce 3e33
00000170: ea35 af32 c416 a430 0000 0000 0000 0000
00000180: 0887 d12b b108 522d 65b2 ba2b 3e7f a02a
00000190: 0000 0000 65b2 ba2b 9f87 1a2c 1c7f 6d2b
000001a0: 0000 0000 0000 0000 9f87 1a2b 0000 0000
000001b0: 0000 0000 ffa4 3629 7ec1 5731 8c3c 2a32
000001c0: 80b8 7332 1875 0633 33b1 a533 e693 7934
000001d0: 2be2 0a35 95e5 5135 c141 b735 a010 0436
000001e0: ea8c 3236 e8c0 5236 b8bb 8736 34df a836
000001f0: 31de b936 8970 d036 e400 f136 4854 0c37
00000200: b759 1637 38f5 2137 7250 3237 08bb 4537
00000210: 3683 5037 0e13 6f37 0c38 7537 2945 8137
00000220: 67e1 8a37 ddcc 8537 b9f1 8f37 5ab4 9137
00000230: 4646 9537 1748 9e37 7a60 9d37 ce8e a037
00000240: 6c2a a337 8194 a737 d9cd 9f37 ce4a a437
00000250: 5540 a037 e9df 9f37 aa09 9c37 33f8 9737
00000260: 3c1a 9437 9a37 8b37 b118 8a37 44ba 8437
00000270: f885 7637 389b 6d37 6891 5d37 dbf6 5a37
00000280: b3b7 4037 ab50 2f37 2b56 2437 2d5e 1137
00000290: ceaf 0137 66cf d736 992c bd36 a62b 9f36
000002a0: 38e6 8536 de76 6536 2f36 4f36 c753 2136
000002b0: 0759 e935 354f a835 b9d3 8835 f264 3535
000002c0: 9c38 0e35 8110 0a35 06b7 0735 d9a7 eb34
000002d0: 93c9 8c34 9421 2c34 f47c dc33 e8e6 6333
000002e0: 49e7 1e33 cd90 2a33 9cce 3e33 393a 5433
000002f0: a17f 2c32 7de9 8430 21fb 032c 0000 0000
00000300: 65b2 ba2c b108 522d 65b2 ba2c 3e7f a02a
00000310: 0000 0000 0000 0000 0000 0000 0000 0000
00000320: 0000 0000 0000 0000 0000 0000 0000 0000
00000330: 0000 0000 0000 0000 0000 0000 0000 0000
00000340: 0000 0000 0000 0000 0000 0000 0000 0000
00000350: 0000 0000 0000 0000 0000 0000 0000 0000
00000360: 0000 0000 0000 0000 0000 0000 0000 0000
00000370: 0000 0000 0000 0000 0000 0000 5fc1 272f
00000380: cd94 9e2f 100f 8331 50ea 4f33 e62a 1c34
00000390: 05db 8834 723b e134 eb18 3435 0dec 4b35
000003a0: c5b3 8435 863b 9d35 205a b135 4893 ce35
000003b0: d198 0236 3036 0536 835c 2336 e28d 3d36
000003c0: 6ae5 4636 a9b1 5936 b893 7836 5267 7f36
000003d0: b49a 8d36 355b 9636 ba34 a236 2f35 ad36
000003e0: aadd bb36 2350 c736 8bb5 d236 c3c0 d636
000003f0: 1677 e436 f532 ed36 e452 fa36 98cd 0137

exp_avg f4 [100]
0.0004505265 4.053995e-14 6.6627545e-05 -1.9118088e-05 0.00023303428 0.0 0.00023546502 0.0
-2.0969654e-05 0.0 -0.00025492517 -6.32194e-05 3.1351027e-14 -0.00027019242 7.0402566e-14 1.8533563e-05
-0.00017001285 0.0 -3.2277043e-05 0.0 2.507457e-14 0.00032051335 4.0387957e-14 1.8722498e-14
0.0001402972 -0.00015715967 0.0 0.00031687084 0.0 0.0 0.0 0.0
0.0 9.332255e-16 -0.00026568188 0.00029323722 0.0 0.0 0.0 -0.00014739444
-0.00020746196 0.0 -0.00021517239 -0.00015326116 1.0267297e-05 0.00049872807 0.0 0.0002807559
0.0001282963 -1.9453546e-05 0.0 0.00015742154 -0.00023578446 0.0 -0.00028013394 5.7532357e-05
4.8341797e-14 0.00012404603 0.0 0.00029202623 2.1416054e-13 0.0 -0.0002421957 0.00019770463
5.285521e-14 -7.446924e-05 8.134537e-05 1.3846764e-15 0.0 0.0 0.00034031543 -9.399129e-05
0.0 -0.00018501286 0.0 -9.277683e-05 0.0 5.629766e-15 0.00026901765 0.0
-4.0619507e-05 -0.00014602052 0.0 0.0 0.00023135332 0.0 7.315745e-14 0.0
0.0 0.0 0.00024007678 -0.00020341488 0.0 -6.66061e-05 8.808698e-15 0.0001877153
0.00024923493 -0.00010776225 0.0 0.00023480976
00000000: a534 ec39 6193 3629 64ba 8b38 c85f a0b7
00000010: aa5a 7439 0000 0000 29e7 7639 0000 0000
00000020: fde7 afb7 0000 0000 7aa7 85b9 a894 84b8
00000030: 4631 0d29 9da8 8db9 5188 9e29 8678 9b37
00000040: 7a45 32b9 0000 0000 3661 07b8 0000 0000
00000050: 06da e128 930a a839 25e4 3529 24a3 a828
00000060: be1c 1339 3acb 24b9 0000 0000 af21 a639
00000070: 0000 0000 0000 0000 0000 0000 0000 0000
00000080: 0000 0000 f27d 8626 384b 8bb9 a2bd 9939
00000090: 0000 0000 0000 0000 0000 0000 e58d 1ab9
000000a0: 258a 59b9 0000 0000 e69f 61b9 bbb4 20b9
000000b0: b441 2c37 13bd 023a 0000 0000 6b32 9339
000000c0: 4787 0639 2c30 a3b7 0000 0000 8611 2539
000000d0: e93c 77b9 0000 0000 f1de 92b9 e64e 7138
000000e0: 4cb6 5929 5a12 0239 0000 0000 191b 9939
000000f0: 931f 712a 0000 0000 eaf5 7db9 ef4e 4f39
00000100: e909 6e29 5e2c 9cb8 f797 aa38 8b8d c726
00000110: 0000 0000 0000 0000 5d6c b239 311d c5b8
00000120: 0000 0000 0300 42b9 0000 0000 2e91 c2b8
00000130: 0000 0000 6dd5 ca27 f00a 8d39 0000 0000
00000140: dd5e 2ab8 161d 19b9 0000 0000 0000 0000
00000150: 6f97 7239 0000 0000 66bc a429 0000 0000
00000160: 0000 0000 0000 0000 1fbd 7b39 c44b 55b9
00000170: 0000 0000 e1ae 8bb8 f3ae 1e28 71d5 4439
00000180: bfab 8239 6bfe e1b8 0000 0000 4437 7639

exp_avg_sq f4 [100]
3.693674e-05 7.84894e-06 2.4449387e-06 1.097218e-07 3.203166e-05 0.0 3.337168e-05 0.0
4.3298772e-07 0.0 4.6011497e-05 4.2134775e-06 1.5357792e-06 5.595302e-05 4.327287e-08 1.0998589e-07
2.3623954e-05 0.0 1.1966542e-06 0.0 1.1168585e-06 6.287667e-05 7.790181e-06 1.6740607e-06
1.1580391e-05 1.0356326e-05 0.0 6.806244e-05 0.0 0.0 0.0 0.0
0.0 1.203066e-09 5.2064006e-05 2.8754279e-05 0.0 0.0 0.0 2.6097783e-05
2.5840076e-05 0.0 2.3387385e-05 1.8431992e-05 5.1036193e-07 2.0172049e-05 0.0 4.8538186e-05
1.3257307e-05 1.9303589e-07 0.0 1.3173231e-05 3.6328798e-05 0.0 4.8564296e-05 6.53092e-07
4.1409553e-06 4.5067413e-06 0.0 4.8173475e-05 2.6587379e-05 0.0 3.116403e-05 2.8008504e-05
1.0817812e-05 3.507807e-06 1.7005908e-06 1.2866482e-09 0.0 0.0 4.276183e-05 8.599852e-06
0.0 2.1816302e-05 0.0 1.0839593e-05 0.0 1.5136477e-07 4.2315784e-05 0.0
6.590614e-07 8.293441e-06 0.0 0.0 1.8049985e-05 0.0 9.475316e-06 0.0
0.0 0.0 4.5438093e-05 1.8025625e-05 0.0 3.6512276e-06 3.004599e-07 1.1501493e-05
3.437859e-05 5.663576e-06 0.0 3.24601e-05
00000000: 86ec 1a38 f1ae 0337 ba13 2436 33a0 eb33
00000010: bc59 0638 0000 0000 92f8 0b38 0000 0000
00000020: 6175 e834 0000 0000 78fc 4038 7f61 8d36
00000030: f920 ce35 19af 6a38 06db 3933 6231 ec33
00000040: 0e2c c637 0000 0000 ba9c a035 0000 0000
00000050: f7e6 9535 a8dc 8338 93b2 0237 4ab0 e035
00000060: 6749 4237 15c0 2d37 0000 0000 bfbc 8e38
00000070: 0000 0000 0000 0000 0000 0000 0000 0000
00000080: 0000 0000 1f59 a530 4d5f 5a38 5835 f137
00000090: 0000 0000 0000 0000 0000 0000 90ec da37
000000a0: 24c3 d837 0000 0000 0730 c437 679e 9a37
000000b0: ceff 0835 2537 a937 0000 0000 7b95 4b38
000000c0: b36b 5e37 4d45 4f34 0000 0000 9902 5d37
000000d0: c05f 1838 0000 0000 84b1 4b38 2450 2f35
000000e0: 89f2 8a36 9d38 9736 0000 0000 e00d 4a38
000000f0: f607 df37 0000 0000 1fb6 0238 cef3 ea37
00000100: 267e 3537 aa67 6b36 db3f e435 e9d5 b030
00000110: 0000 0000 0000 0000 2a5b 3338 1548 1037
00000120: 0000 0000 2702 b737 0000 0000 b3db 3537
00000130: 0000 0000 d586 2234 3a7c 3138 0000 0000
00000140: 5bea 3035 0f24 0b37 0000 0000 0000 0000
00000150: 0c6a 9737 0000 0000 2cf8 1e37 0000 0000
00000160: 0000 0000 0000 0000 c894 3e38 bc35 9737
00000170: 0000 0000 9d07 7536 e54e a134 89f6 4037
00000180: bb31 1038 bf09 be36 0000 0000 c425 0838

exp_avg f4 [1, 100]
0.0012645512 4.2672503e-14 -0.001174493 -0.0024789707 -0.00041631176 0.0 -0.00023916803 0.0
-0.0018982502 0.0 -0.0027075552 -0.0014462922 1.5127418e-13 -0.001492369 -5.160482e-13 -0.0014764958
-0.0015488013 0.0 -0.0025710245 0.0 -8.3497825e-14 -0.00044613995 2.9706167e-14 2.662996e-14
-0.00022972416 -0.0023942166 0.0 -0.0012455259 0.0 0.0 0.0 0.0
0.0 -5.754344e-14 -0.0020367694 -0.00066952215 0.0 0.0 0.0 0.0008685118
-0.0024953426 0.0 -0.002492336 -0.0022702557 -0.0006202117 0.0012948789 0.0 -0.00079449225
-0.0005312884 -0.0018857692 0.0 -0.00015322717 -0.0024857824 0.0 -0.0026737223 -0.00014615885
-1.4033634e-13 -0.00014527337 0.0 -0.0008079072 -5.2918276e-13 0.0 -0.0017968834 -0.00047828493
-3.142765e-14 -0.0023399433 -0.001282646 -1.5944029e-13 0.0 0.0 -0.001266867 -0.0017203726
0.0 -0.0026856614 0.0 0.00071986765 0.0 2.9032705e-14 -0.00016287675 0.0
-0.0016618568 -0.0027550268 0.0 0.0 -0.00095244835 0.0 -1.8252992e-13 0.0
0.0 0.0 -0.001673698 -0.0020657943 0.0 -0.0020393021 -1.6259294e-14 -0.00081337977
-0.00019374165 -0.002888157 0.0 -0.00043639855
00000000: 4cbf a53a 0c2e 4029 72f1 99ba 3a76 22bb
00000010: 6b44 dab9 0000 0000 2ec9 7ab9 0000 0000
00000020: b5ce f8ba 0000 0000 3d71 31bb 8391 bdba
00000030: d051 2a2a 989b c3ba 3141 11ab fa86 c1ba
00000040: 2601 cbba 0000 0000 a27e 28bb 0000 0000
00000050: 3805 bca9 e4e7 e9b9 e1c8 0529 82dc ef28
00000060: 1ce2 70b9 4ae8 1cbb 0000 0000 ea40 a3ba
00000070: 0000 0000 0000 0000 0000 0000 0000 0000
00000080: 0000 0000 8993 81a9 527b 05bb df82 2fba
00000090: 0000 0000 0000 0000 0000 0000 d7ac 633a
000000a0: e788 23bb 0000 0000 7656 23bb 92c8 14bb
000000b0: b495 22ba edb8 a93a 0000 0000 7945 50ba
000000c0: 2946 0bba ea2b f7ba 0000 0000 9bab 20b9
000000d0: 82e8 22bb 0000 0000 9e39 2fbb 3842 19b9
000000e0: 3201 1eaa 8654 18b9 0000 0000 bcc9 53ba
000000f0: a3f3 14ab 0000 0000 6785 ebba 51c2 fab9
00000100: 9d89 0da9 bc59 19bb 751e a8ba 8983 33aa
00000110: 0000 0000 0000 0000 010d a6ba 207e e1ba
00000120: 0000 0000 ec01 30bb 0000 0000 80b5 3c3a
00000130: 0000 0000 6ec0 0229 e5c9 2ab9 0000 0000
00000140: a9d2 d9ba ae8d 34bb 0000 0000 0000 0000
00000150: baad 79ba 0000 0000 ab82 4daa 0000 0000
00000160: 0000 0000 0000 0000 fc5f dbba 4762 07bb
00000170: 0000 0000 d0a5 05bb 6173 92a8 fe38 55ba
00000180: 2127 4bb9 3c47 3dbb 0000 0000 6ccc e4b9

exp_avg_sq f4 [1, 100]
0.00035334946 8.696403e-06 0.0025242106 0.0011397093 0.00060370343 0.0 0.00026312468 0.0
0.0010082627 0.0 0.0016741472 0.00016527229 7.002374e-05 0.00025613283 0.00052554486 0.0039932895
0.00088079897 0.0 0.0024603652 0.0 1.4892856e-05 0.0005796213 4.2144043e-06 3.3867639e-06
0.00083672354 0.0006314958 0.0 0.0024250804 0.0 0.0 0.0 0.0
0.0 5.3489235e-05 0.0009632325 0.00047008952 0.0 0.0 0.0 0.0002714468
0.000630729 0.0 0.0009163238 0.00088545616 0.0009913195 9.053653e-05 0.0 0.0002594848
0.0007421426 0.00039361673 0.0 0.0003244029 0.0012127128 0.0 0.0010689517 0.00017357881
4.1057963e-05 0.0003777008 0.0 0.00050243444 0.00028897828 0.0 0.00041254336 0.00017230783
3.824609e-06 0.0011722981 0.00048998336 0.00038435424 0.0 0.0 0.00039686813 0.00062605843
0.0 0.0013391341 0.0 0.00018870454 0.0 4.025496e-06 0.00015087795 0.0
0.00051215116 0.00078187854 0.0 0.0 0.0005164312 0.0 6.396317e-05 0.0
0.0 0.0 0.0022716685 0.00023354597 0.0 0.000565772 1.0236848e-06 0.0009848638
0.00013210924 0.0010884667 0.0 0.00042234725
00000000: c341 b939 c4e6 1137 3a6d 253b 4c62 953a
00000010: da41 1e3a 0000 0000 fff3 8939 0000 0000
00000020: af27 843a 0000 0000 0f6f db3a f14c 2d39
00000030: b6d9 9238 9149 8639 b8c4 093a 24da 823b
00000040: 6be5 663a 0000 0000 143e 213b 0000 0000
00000050: 54dc 7937 baf1 173a 7569 8d36 2948 6336
00000060: 9157 5b3a f78a 253a 0000 0000 19ee 1e3b
00000070: 0000 0000 0000 0000 0000 0000 0000 0000
00000080: 0000 0000 a159 6038 7081 7c3a 5976 f639
00000090: 0000 0000 0000 0000 0000 0000 f950 8e39
000000a0: 8257 253a 0000 0000 7335 703a f51d 683a
000000b0: 2aef 813a 6ede bd38 0000 0000 760b 8839
000000c0: 598c 423a 585e ce39 0000 0000 9f14 aa39
000000d0: e4f3 9e3a 0000 0000 111c 8c3a b502 3639
000000e0: a735 2c38 2506 c639 0000 0000 ceb5 033a
000000f0: 0282 9739 0000 0000 a24a d839 88ad 3439
00000100: 2455 8036 cca7 993a 3a72 003a 2783 c939
00000110: 0000 0000 0000 0000 bd12 d039 121e 243a
00000120: 0000 0000 e285 af3a 0000 0000 fdde 4539
00000130: 0000 0000 bf12 8736 fe34 1e39 0000 0000
00000140: e241 063a fbf6 4c3a 0000 0000 0000 0000
00000150: 1c61 073a 0000 0000 f723 8638 0000 0000
00000160: 0000 0000 0000 0000 46e0 143b 05e4 7439
00000170: 0000 0000 5150 143a 8b65 8935 8c16 813a
00000180: ce86 0a39 e2aa 8e3a 0000 0000 7d6e dd39
