saved_models/FFnetProfile_test_e9.pth (torch, 165953 bytes, 9 tensors)

network.0.weight f4 [16, 2]
0	0xbf25aabd	-0.6471365
1	0xbdcaa188	-0.09894091
2	0xbef5df98	-0.4802215
3	0xbeb22737	-0.34795544
4	0xbf315c7b	-0.6928174
5	0x3d280cd1	0.041027848
6	0x3e622e8b	0.22088067
7	0x3f023f4f	0.5087785
8	0x3c9f0d82	0.01941562
9	0xbf2fb511	-0.6863566
10	0x3f18aa39	0.5963474
11	0xbeb7253c	-0.35770595
12	0xbda60b3d	-0.08107612
13	0x3ed24bc9	0.41073444
14	0x3ecba786	0.39776248
15	0x3e8ef354	0.2792002
16	0xbcc38a36	-0.023869615
17	0xbf12e1af	-0.57375616
18	0xbf29a61b	-0.6626908
19	0x3f15169a	0.5823761
20	0x3e22743e	0.15864655
21	0x3dcf7620	0.101299524
22	0x3f31b088	0.6940999
23	0xbe92a86b	-0.28644118
24	0xbeea88f2	-0.45807606
25	0x3dca96e1	0.09892059
26	0x3eef3926	0.46723288
27	0x3e153681	0.14571573
28	0xbe93f049	-0.2889426
29	0xbf2dc84f	-0.6788377
30	0x3e6cb8f9	0.23117436
31	0xbd5c00ca	-0.05371169

network.0.bias f4 [16]
0	0x3f1a0b65	0.60173637
1	0xbdfa31c6	-0.12216525
2	0x3e040d73	0.12895755
3	0xbee2ec72	-0.44321018
4	0xbf125578	-0.57161665
5	0xbd81ccce	-0.063378915
6	0x3da08840	0.078384876
7	0xbdf4b5c5	-0.11948732
8	0x3ebaa214	0.3645178
9	0x3ec79bb3	0.38985977
10	0xbd665f45	-0.0562432
11	0xbee44e4f	-0.44590995
12	0xbe84da9c	-0.25948036
13	0xbdc31e99	-0.095273204
14	0xbec8ca9b	-0.39217076
15	0xbf01d259	-0.5071159

network.2.weight f4 [1, 16]
0	0xbd875048	-0.06607109
1	0xbdf0abe0	-0.117515326
2	0xbe468dae	-0.19389984
3	0xbe34ce7a	-0.1765689
4	0xbe350c18	-0.17680395
5	0x3d87f644	0.06638768
6	0xbe6a6dec	-0.22893494
7	0xbd4f0bf0	-0.050548494
8	0xbd07dab0	-0.03316754
9	0xbe47e7d4	-0.19522029
10	0xbe058776	-0.13039955
11	0x3d901534	0.07035294
12	0xbe4400de	-0.19140956
13	0x3e067e28	0.13134062
14	0xbd9a021c	-0.075199336
15	0x3e5fcf06	0.21856317

exp_avg f4 [100, 200]
0	0x00000000	0.0
1	0x00000000	0.0
2	0x00000000	0.0
3	0x00000000	0.0
4	0x00000000	0.0
5	0x00000000	0.0
6	0x00000000	0.0
7	0x00000000	0.0
8	0x00000000	0.0
9	0x00000000	0.0
10	0x00000000	0.0
11	0x00000000	0.0
12	0x00000000	0.0
13	0x00000000	0.0
14	0x00000000	0.0
15	0x00000000	0.0
16	0x00000000	0.0
17	0x00000000	0.0
18	0x00000000	0.0
19	0x00000000	0.0
20	0x00000000	0.0
21	0x00000000	0.0
22	0x00000000	0.0
23	0x00000000	0.0
24	0x00000000	0.0
25	0x00000000	0.0
26	0x00000000	0.0
27	0x00000000	0.0
28	0x00000000	0.0
29	0x00000000	0.0
30	0x00000000	0.0
31	0x00000000	0.0
32	0x00000000	0.0
33	0x00000000	0.0
34	0x00000000	0.0
35	0x00000000	0.0
36	0x00000000	0.0
37	0x00000000	0.0
38	0x00000000	0.0
39	0x00000000	0.0
40	0x00000000	0.0
41	0x00000000	0.0
42	0x00000000	0.0
43	0x00000000	0.0
44	0x00000000	0.0
45	0x00000000	0.0
46	0x00000000	0.0
47	0x00000000	0.0
48	0x00000000	0.0
49	0x00000000	0.0
50	0x00000000	0.0
51	0x00000000	0.0
52	0x00000000	0.0
53	0x00000000	0.0
54	0x00000000	0.0
55	0x00000000	0.0
56	0x00000000	0.0
57	0x00000000	0.0
58	0x00000000	0.0
59	0x00000000	0.0
60	0x00000000	0.0
61	0x00000000	0.0
62	0x00000000	0.0
63	0x00000000	0.0
64	0x00000000	0.0
65	0x00000000	0.0
66	0x00000000	0.0
67	0x00000000	0.0
68	0x00000000	0.0
69	0x00000000	0.0
70	0x00000000	0.0
71	0x00000000	0.0
72	0x00000000	0.0
73	0x00000000	0.0
74	0x00000000	0.0
75	0x00000000	0.0
76	0x00000000	0.0
77	0x00000000	0.0
78	0x00000000	0.0
79	0x00000000	0.0
80	0x00000000	0.0
81	0x00000000	0.0
82	0x00000000	0.0
83	0x00000000	0.0
84	0x00000000	0.0
85	0x00000000	0.0
86	0x00000000	0.0
87	0x00000000	0.0
88	0x00000000	0.0
89	0x00000000	0.0
90	0x00000000	0.0
91	0x00000000	0.0
92	0x00000000	0.0
93	0x00000000	0.0
94	0x00000000	0.0
95	0x00000000	0.0
96	0x00000000	0.0
97	0x00000000	0.0
98	0x00000000	0.0
99	0x00000000	0.0
100	0x00000000	0.0
101	0x00000000	0.0
102	0x00000000	0.0
103	0x00000000	0.0
104	0x00000000	0.0
105	0x00000000	0.0
106	0x00000000	0.0
107	0x00000000	0.0
108	0x00000000	0.0
109	0x00000000	0.0
110	0x00000000	0.0
111	0x00000000	0.0
112	0x00000000	0.0
113	0x00000000	0.0
114	0x00000000	0.0
115	0x00000000	0.0
116	0x00000000	0.0
117	0x00000000	0.0
118	0x00000000	0.0
119	0x00000000	0.0
120	0x00000000	0.0
121	0x00000000	0.0
122	0x00000000	0.0
123	0x00000000	0.0
124	0x00000000	0.0
125	0x00000000	0.0
126	0x00000000	0.0
127	0x00000000	0.0
128	0x00000000	0.0
129	0x00000000	0.0
130	0x00000000	0.0
131	0x00000000	0.0
132	0x00000000	0.0
133	0x00000000	0.0
134	0x00000000	0.0
135	0x00000000	0.0
136	0x00000000	0.0
137	0x00000000	0.0
138	0x00000000	0.0
139	0x00000000	0.0
140	0x00000000	0.0
141	0x00000000	0.0
142	0x00000000	0.0
143	0x00000000	0.0
144	0x00000000	0.0
145	0x00000000	0.0
146	0x00000000	0.0
147	0x00000000	0.0
148	0x00000000	0.0
149	0x00000000	0.0
150	0x00000000	0.0
151	0x00000000	0.0
152	0x00000000	0.0
153	0x00000000	0.0
154	0x00000000	0.0
155	0x00000000	0.0
156	0x00000000	0.0
157	0x00000000	0.0
158	0x00000000	0.0
159	0x00000000	0.0
160	0x00000000	0.0
161	0x00000000	0.0
162	0x00000000	0.0
163	0x00000000	0.0
164	0x00000000	0.0
165	0x00000000	0.0
166	0x00000000	0.0
167	0x00000000	0.0
168	0x00000000	0.0
169	0x00000000	0.0
170	0x00000000	0.0
171	0x00000000	0.0
172	0x00000000	0.0
173	0x00000000	0.0
174	0x00000000	0.0
175	0x00000000	0.0
176	0x00000000	0.0
177	0x00000000	0.0
178	0x00000000	0.0
179	0x00000000	0.0
180	0x00000000	0.0
181	0x00000000	0.0
182	0x00000000	0.0
183	0x00000000	0.0
184	0x00000000	0.0
185	0x00000000	0.0
186	0x00000000	0.0
187	0x00000000	0.0
188	0x00000000	0.0
189	0x00000000	0.0
190	0x00000000	0.0
191	0x00000000	0.0
192	0x00000000	0.0
193	0x00000000	0.0
194	0x00000000	0.0
195	0x00000000	0.0
196	0x00000000	0.0
197	0x00000000	0.0
198	0x00000000	0.0
199	0x00000000	0.0
200	0x00000000	0.0
201	0x00000000	0.0
202	0x00000000	0.0
203	0x00000000	0.0
204	0x00000000	0.0
205	0x00000000	0.0
206	0x00000000	0.0
207	0x00000000	0.0
208	0x00000000	0.0
209	0x00000000	0.0
210	0x00000000	0.0
211	0x00000000	0.0
212	0x00000000	0.0
213	0x00000000	0.0
214	0x00000000	0.0
215	0x00000000	0.0
216	0x00000000	0.0
217	0x00000000	0.0
218	0x00000000	0.0
219	0x00000000	0.0
220	0x00000000	0.0
221	0x00000000	0.0
222	0x00000000	0.0
223	0x00000000	0.0
224	0x00000000	0.0
225	0x00000000	0.0
226	0x00000000	0.0
227	0x00000000	0.0
228	0x00000000	0.0
229	0x00000000	0.0
230	0x00000000	0.0
231	0x00000000	0.0
232	0x00000000	0.0
233	0x00000000	0.0
234	0x00000000	0.0
235	0x00000000	0.0
236	0x00000000	0.0
237	0x00000000	0.0
238	0x00000000	0.0
239	0x00000000	0.0
240	0x00000000	0.0
241	0x00000000	0.0
242	0x00000000	0.0
243	0x00000000	0.0
244	0x00000000	0.0
245	0x00000000	0.0
246	0x00000000	0.0
247	0x00000000	0.0
248	0x00000000	0.0
249	0x00000000	0.0
250	0x00000000	0.0
251	0x00000000	0.0
252	0x00000000	0.0
253	0x00000000	0.0
254	0x00000000	0.0
255	0x00000000	0.0

exp_avg_sq f4 [100, 200]
0	0x00000000	0.0
1	0x00000000	0.0
2	0x00000000	0.0
3	0x00000000	0.0
4	0x00000000	0.0
5	0x00000000	0.0
6	0x00000000	0.0
7	0x00000000	0.0
8	0x00000000	0.0
9	0x00000000	0.0
10	0x00000000	0.0
11	0x00000000	0.0
12	0x00000000	0.0
13	0x00000000	0.0
14	0x00000000	0.0
15	0x00000000	0.0
16	0x00000000	0.0
17	0x00000000	0.0
18	0x00000000	0.0
19	0x29224850	3.6033947e-14
20	0x2969afba	5.188881e-14
21	0x2bdce829	1.5696378e-12
22	0x2d69afba	1.3283536e-11
23	0x2ec61951	9.0084946e-11
24	0x2f79f8b2	2.2734772e-10
25	0x2f9c44a5	2.842501e-10
26	0x300b342c	5.0642046e-10
27	0x305e7bda	8.0939133e-10
28	0x30ec0d44	1.717503e-09
29	0x3117d3be	2.2093753e-09
30	0x31566512	3.119855e-09
31	0x318e5e8c	4.1434927e-09
32	0x31acec5e	5.0327307e-09
33	0x31e0557f	6.528978e-09
34	0x32099fbf	8.010772e-09
35	0x321beab8	9.075556e-09
36	0x3239f215	1.082346e-08
37	0x32559d7e	1.2434041e-08
38	0x327490f8	1.4235631e-08
39	0x3285cccc	1.5576369e-08
40	0x329af3f1	1.8038891e-08
41	0x32ae9a48	2.0326425e-08
42	0x32c7c846	2.3257723e-08
43	0x32cf64b5	2.4143768e-08
44	0x32dc0585	2.561388e-08
45	0x32e8fa7e	2.7122265e-08
46	0x32fcad78	2.9415546e-08
47	0x33073eb3	3.148916e-08
48	0x330a5d71	3.2215613e-08
49	0x331269ba	3.408943e-08
50	0x3323d2c4	3.8143085e-08
51	0x331e7b06	3.689913e-08
52	0x332b92d0	3.9947565e-08
53	0x3330384e	4.1029402e-08
54	0x3334151f	4.1928725e-08
55	0x3336cf52	4.2563734e-08
56	0x3334269f	4.194464e-08
57	0x33445fd5	4.5721965e-08
58	0x333a40a1	4.336528e-08
59	0x33402ad8	4.474245e-08
60	0x3338c546	4.3020258e-08
61	0x33383581	4.28895e-08
62	0x3336bd3f	4.2547295e-08
63	0x332a2270	3.961253e-08
64	0x333997a2	4.321158e-08
65	0x33297b2d	3.9460406e-08
66	0x3324187c	3.8206494e-08
67	0x331ffb10	3.7248412e-08
68	0x33166401	3.501555e-08
69	0x330d84f1	3.295003e-08
70	0x330471a5	3.0837004e-08
71	0x330748a9	3.149822e-08
72	0x32ee10e6	2.7714531e-08
73	0x32dbedce	2.5603097e-08
74	0x32d48754	2.4741588e-08
75	0x32bd1866	2.2013591e-08
76	0x32ac94ee	2.009116e-08
77	0x32907cb9	1.6820524e-08
78	0x32815236	1.5054962e-08
79	0x32723047	1.4097231e-08
80	0x323b00be	1.0885001e-08
81	0x32337def	1.0447805e-08
82	0x320b390a	8.103834e-09
83	0x31eff246	6.983359e-09
84	0x31cd1e8d	5.9697585e-09
85	0x31a82c25	4.894462e-09
86	0x31870d85	3.930554e-09
87	0x314c6175	2.9741305e-09
88	0x3120958d	2.3368074e-09
89	0x30f85777	1.8069234e-09
90	0x3087ef6b	9.89059e-10
91	0x300fb158	5.227512e-10
92	0x2f83234f	2.385385e-10
93	0x2f311bf0	1.6107982e-10
94	0x2eff7bb2	1.161803e-10
95	0x2ed93772	9.8778666e-11
96	0x2ce82f1d	6.599067e-12
97	0x2923607c	3.6276957e-14
98	0x271ce2bc	2.1772262e-15
99	0x281ce2bc	8.708905e-15
100	0x00000000	0.0
101	0x00000000	0.0
102	0x271ce2bc	2.1772262e-15
103	0x271ce2bc	2.1772262e-15
104	0x00000000	0.0
105	0x00000000	0.0
106	0x00000000	0.0
107	0x00000000	0.0
108	0x00000000	0.0
109	0x00000000	0.0
110	0x00000000	0.0
111	0x00000000	0.0
112	0x00000000	0.0
113	0x00000000	0.0
114	0x00000000	0.0
115	0x27cfb8a7	5.765424e-15
116	0x00000000	0.0
117	0x26cfb8a7	1.441356e-15
118	0x00000000	0.0
119	0x00000000	0.0
120	0x271ce2bc	2.1772262e-15
121	0x271ce2bc	2.1772262e-15
122	0x00000000	0.0
123	0x26cfb8a7	1.441356e-15
124	0x00000000	0.0
125	0x2b445ca3	6.976175e-13
126	0x2b1275c1	5.2033036e-13
127	0x2b9f57de	1.1322018e-12
128	0x2d83e7b9	1.4995881e-11
129	0x2e2eb0e7	3.972014e-11
130	0x2f0547d4	1.2121798e-10
131	0x2f512c7d	1.9024245e-10
132	0x2f889f6e	2.4851537e-10
133	0x2fd7650c	3.918007e-10
134	0x300cee0a	5.1269977e-10
135	0x30536da8	7.6917184e-10
136	0x30ac3b59	1.2531515e-09
137	0x30d4bbfd	1.547846e-09
138	0x30f8c829	1.8101264e-09
139	0x3104934f	1.9292263e-09
140	0x31332c26	2.6073024e-09
141	0x313d230c	2.7523042e-09
142	0x3165d58a	3.3445269e-09
143	0x318c6636	4.0861563e-09
144	0x31978f38	4.4109605e-09
145	0x31b5009c	5.2678626e-09
146	0x31b9729e	5.397239e-09
147	0x31b95956	5.394365e-09
148	0x31df269a	6.4945427e-09
149	0x31d5e7f6	6.225487e-09
150	0x31f5bc42	7.151841e-09
151	0x32045c32	7.704374e-09
152	0x32013bd1	7.522389e-09
153	0x3211ab9d	8.479131e-09
154	0x321bc2b1	9.066455e-09
155	0x321ed3c1	9.244958e-09
156	0x320dcf1c	8.254371e-09
157	0x321d1ef8	9.145644e-09
158	0x321e9b03	9.232056e-09
159	0x32151781	8.678286e-09
160	0x3219847c	8.935896e-09
161	0x321ce642	9.13275e-09
162	0x320b67b2	8.1144425e-09
163	0x3207fcdd	7.915529e-09
164	0x3205904e	7.77443e-09
165	0x3201dfa1	7.559636e-09
166	0x31e81bf9	6.755269e-09
167	0x31c44915	5.7126592e-09
168	0x31ac1911	5.0087086e-09
169	0x31a3bc89	4.7653583e-09
170	0x318eff50	4.1617696e-09
171	0x3179b3fd	3.633658e-09
172	0x315f6bcc	3.2512046e-09
173	0x3134e252	2.6322096e-09
174	0x311222e7	2.1265636e-09
175	0x3102b21a	1.9018729e-09
176	0x30ca4fca	1.4720112e-09
177	0x30941d91	1.077682e-09
178	0x30807969	9.347733e-10
179	0x307835bf	9.029825e-10
180	0x307efc0d	9.276285e-10
181	0x3028be0d	6.138812e-10
182	0x2fb5eac3	3.3090516e-10
183	0x2f98967b	2.7755562e-10
184	0x2f100f88	1.3102242e-10
185	0x2e8d45fb	6.424369e-11
186	0x2e379957	4.1745576e-11
187	0x2dec02da	2.683136e-11
188	0x2edf6811	1.0159352e-10
189	0x2e6613dd	5.2313587e-11
190	0x2cb7fa5a	5.2289674e-12
191	0x29752242	5.4430642e-14
192	0x28b07f00	1.9595003e-14
193	0x271ce2bc	2.1772262e-15
194	0x281ce2bc	8.708905e-15
195	0x28b07f00	1.9595003e-14
196	0x00000000	0.0
197	0x00000000	0.0
198	0x00000000	0.0
199	0x00000000	0.0
200	0x00000000	0.0
201	0x00000000	0.0
202	0x2a8c9340	2.497117e-13
203	0x2af9e91f	4.4393046e-13
204	0x2af9e91f	4.4393046e-13
205	0x00000000	0.0
206	0x28f9e91f	2.7745653e-14
207	0x2cdba5f7	6.24278e-12
208	0x2f157baa	1.3595405e-10
209	0x309a1025	1.1209563e-09
210	0x30522937	7.6456125e-10
211	0x2fb539c6	3.296476e-10
212	0x2ff9e91f	4.545848e-10
213	0x30157baa	5.438162e-10
214	0x30bbefd0	1.36742e-09
215	0x3134dfe3	2.6320712e-09
216	0x31855942	3.880957e-09
217	0x31fcd924	7.3588513e-09
218	0x32282f91	9.789702e-09
219	0x3205e553	7.793761e-09
220	0x32168d71	8.763309e-09
221	0x3222920e	9.46285e-09
222	0x323b6476	1.0907675e-08
223	0x3252cb75	1.226987e-08
224	0x3294be77	1.7316081e-08
225	0x32b9d38f	2.163304e-08
226	0x32b3fb00	2.0952484e-08
227	0x33056428	3.1057567e-08
228	0x33082def	3.1706744e-08
229	0x330fee23	3.3511366e-08
230	0x3314f2ff	3.467994e-08
231	0x33279eae	3.9027036e-08
232	0x3336ef6e	4.2592937e-08
233	0x332de567	4.048834e-08
234	0x33438c3f	4.552953e-08
235	0x334b4154	4.7324036e-08
236	0x333a7efe	4.3422e-08
237	0x334aa215	4.7179203e-08
238	0x3345b109	4.602865e-08
239	0x3337d292	4.279952e-08
240	0x3344c58f	4.5814485e-08
241	0x33357642	4.22499e-08
242	0x33255da1	3.850221e-08
243	0x3323f706	3.817606e-08
244	0x3317a035	3.5303135e-08
245	0x330c8b88	3.2723193e-08
246	0x32f6fdb7	2.8753545e-08
247	0x32d78cab	2.5093263e-08
248	0x32c55d50	2.2976252e-08
249	0x32b7ba63	2.1388763e-08
250	0x32a75e49	1.9484235e-08
251	0x329b9997	1.811422e-08
252	0x32976437	1.7624286e-08
253	0x32a7c49e	1.953077e-08
254	0x32800dd3	1.4907448e-08
255	0x32270e27	9.723897e-09

exp_avg f4 [100]
0	0x00000000	0.0
1	0x00000000	0.0
2	0x00000000	0.0
3	0x3a6413b6	0.0008700447
4	0x00000000	0.0
5	0x00000000	0.0
6	0x38eeb2ba	0.00011382015
7	0x3a52e524	0.0008045009
8	0x00000000	0.0
9	0x3a0f94f2	0.00054772117
10	0x00000000	0.0
11	0xba444ea9	-0.0007488528
12	0x00000000	0.0
13	0x00000000	0.0
14	0x00000000	0.0
15	0x00000000	0.0
16	0x00000000	0.0
17	0x00000000	0.0
18	0x00000000	0.0
19	0xb9d1a724	-0.00039988116
20	0x00000000	0.0
21	0x00000000	0.0
22	0x00000000	0.0
23	0x00000000	0.0
24	0x00000000	0.0
25	0xb92361b9	-0.00015581296
26	0x00000000	0.0
27	0x00000000	0.0
28	0x00000000	0.0
29	0x00000000	0.0
30	0x00000000	0.0
31	0xb99b1275	-0.00029577655
32	0xb725158c	-9.839783e-06
33	0x3a0b3551	0.0005310374
34	0xba2da0b7	-0.00066233746
35	0x00000000	0.0
36	0xb9d51525	-0.0004064228
37	0x00000000	0.0
38	0xba5982de	-0.0008297394
39	0x00000000	0.0
40	0x00000000	0.0
41	0xb98e117e	-0.00027097383
42	0x00000000	0.0
43	0x00000000	0.0
44	0x00000000	0.0
45	0x00000000	0.0
46	0x37f8bb32	2.9651073e-05
47	0xb92b1d7f	-0.00016318819
48	0x00000000	0.0
49	0x00000000	0.0
50	0xba2d36c0	-0.00066075847
51	0x3a5095f1	0.00079569133
52	0x00000000	0.0
53	0x00000000	0.0
54	0x39de9b60	0.00042458903
55	0xb985cfba	-0.00025522505
56	0xba60756f	-0.0008562421
57	0x3a46c69b	0.0007582695
58	0x00000000	0.0
59	0x00000000	0.0
60	0x00000000	0.0
61	0xb78c3a3d	-1.671642e-05
62	0xba06899c	-0.00051322
63	0x00000000	0.0
64	0x00000000	0.0
65	0x00000000	0.0
66	0xba53afef	-0.00080752274
67	0x00000000	0.0
68	0x00000000	0.0
69	0x392a245f	0.00016226013
70	0x3a12de8a	0.0005602619
71	0x3998ef5e	0.00029170042
72	0xb99f7948	-0.00030417205
73	0x00000000	0.0
74	0x00000000	0.0
75	0x00000000	0.0
76	0x00000000	0.0
77	0x39f25bee	0.0004622633
78	0x00000000	0.0
79	0x398e3615	0.00027124645
80	0x00000000	0.0
81	0xba40544c	-0.000733678
82	0x39453c63	0.0001880988
83	0x3a44a262	0.00075010036
84	0x00000000	0.0
85	0x3a4aeaba	0.00077406655
86	0x00000000	0.0
87	0xb509a3f3	-5.1275055e-07
88	0x3990fd5d	0.0002765459
89	0x00000000	0.0
90	0xba155dd6	-0.00056978816
91	0x39a58440	0.00031569786
92	0x3a3acd82	0.000712596
93	0x00000000	0.0
94	0x00000000	0.0
95	0x00000000	0.0
96	0x39ab05df	0.00032620036
97	0xb9b88a1a	-0.00035198109
98	0x00000000	0.0
99	0x00000000	0.0

exp_avg_sq f4 [100]
0	0x3346c8f7	4.6283244e-08
1	0x34cab6d3	3.7758454e-07
2	0x00000000	0.0
3	0x382978e8	4.0405343e-05
4	0x34c5bc44	3.683109e-07
5	0x33ca5405	9.421641e-08
6	0x35b5348d	1.3500845e-06
7	0x3814856d	3.5410212e-05
8	0x00000000	0.0
9	0x37a36f5e	1.9482974e-05
10	0x3603f398	1.9662311e-06
11	0x380bb3fc	3.3307806e-05
12	0x00000000	0.0
13	0x00000000	0.0
14	0x00000000	0.0
15	0x00000000	0.0
16	0x00000000	0.0
17	0x00000000	0.0
18	0x00000000	0.0
19	0x37139df2	8.798657e-06
20	0x313e61ad	2.7704161e-09
21	0x00000000	0.0
22	0x00000000	0.0
23	0x00000000	0.0
24	0x349102d5	2.7010415e-07
25	0x35f6c1c0	1.8384817e-06
26	0x356fcb68	8.9330433e-07
27	0x00000000	0.0
28	0x346e56f2	2.2197108e-07
29	0x35a111a8	1.2000573e-06
30	0x3560070c	8.345676e-07
31	0x36b63a44	5.4308057e-06
32	0x3593e0da	1.1017794e-06
33	0x378162b5	1.5423962e-05
34	0x37e22cd2	2.696217e-05
35	0x00000000	0.0
36	0x37364372	1.0863749e-05
37	0x00000000	0.0
38	0x3812d292	3.500522e-05
39	0x00000000	0.0
40	0x00000000	0.0
41	0x36bfa98c	5.7119814e-06
42	0x2f9711d6	2.7479413e-10
43	0x00000000	0.0
44	0x00000000	0.0
45	0x00000000	0.0
46	0x34e53315	4.269174e-07
47	0x363fa25a	2.855572e-06
48	0x309cf5c1	1.1420341e-09
49	0x00000000	0.0
50	0x37d65bda	2.555356e-05
51	0x3821ff25	3.8623013e-05
52	0x35898ce2	1.0248298e-06
53	0x00000000	0.0
54	0x373ddb26	1.1316302e-05
55	0x3689538e	4.092645e-06
56	0x38347667	4.3025615e-05
57	0x381fab59	3.8068134e-05
58	0x00000000	0.0
59	0x35063893	5.0001216e-07
60	0x35603c0b	8.3533877e-07
61	0x32d76e34	2.5079409e-08
62	0x37859a6e	1.5926747e-05
63	0x00000000	0.0
64	0x00000000	0.0
65	0x340add2c	1.2932713e-07
66	0x3829d0bd	4.0487143e-05
67	0x33d02ec7	9.6942635e-08
68	0x00000000	0.0
69	0x3602581a	1.9422791e-06
70	0x378c6db0	1.6740378e-05
71	0x36da2b0a	6.5019167e-06
72	0x36d69b24	6.3957577e-06
73	0x3505d034	4.9849336e-07
74	0x351d0adb	5.8502854e-07
75	0x3258d7be	1.2621909e-08
76	0x34f69a36	4.5933274e-07
77	0x37415575	1.15235935e-05
78	0x3409db38	1.283887e-07
79	0x36802de0	3.820038e-06
80	0x00000000	0.0
81	0x37e65254	2.7456474e-05
82	0x363e634c	2.8370005e-06
83	0x3808f1b6	3.2650038e-05
84	0x354038d2	7.160826e-07
85	0x38110d2a	3.4582954e-05
86	0x358020db	9.546305e-07
87	0x3504ac98	4.942499e-07
88	0x36acae37	5.1462807e-06
89	0x00000000	0.0
90	0x379fb9c5	1.9040783e-05
91	0x36af08f6	5.2164496e-06
92	0x3800004b	3.051785e-05
93	0x34699829	2.1755172e-07
94	0x359c0410	1.1624088e-06
95	0x00000000	0.0
96	0x370775cc	8.074054e-06
97	0x36f344cd	7.249974e-06
98	0x00000000	0.0
99	0x31bb6005	5.4533325e-09

exp_avg f4 [1, 100]
0	0x00000000	0.0
1	0x00000000	0.0
2	0x00000000	0.0
3	0xbc0d5da4	-0.008628283
4	0x00000000	0.0
5	0x00000000	0.0
6	0xbb409bcb	-0.0029389735
7	0xbc091180	-0.008365989
8	0x00000000	0.0
9	0xbb9c07d5	-0.004761676
10	0x00000000	0.0
11	0xbbed36c5	-0.007239195
12	0x00000000	0.0
13	0x00000000	0.0
14	0x00000000	0.0
15	0x00000000	0.0
16	0x00000000	0.0
17	0x00000000	0.0
18	0x00000000	0.0
19	0xbc14bc53	-0.009078103
20	0x00000000	0.0
21	0x00000000	0.0
22	0x00000000	0.0
23	0x00000000	0.0
24	0x00000000	0.0
25	0xbb977dbf	-0.0046231444
26	0x00000000	0.0
27	0x00000000	0.0
28	0x00000000	0.0
29	0x00000000	0.0
30	0x00000000	0.0
31	0xbbd51453	-0.006502667
32	0x38454db4	4.7040827e-05
33	0xbc1296ba	-0.008947069
34	0xbbd716b2	-0.006563985
35	0x00000000	0.0
36	0xbbf4a4b2	-0.0074659223
37	0x00000000	0.0
38	0xbc1c2360	-0.009529918
39	0x00000000	0.0
40	0x00000000	0.0
41	0xbbb2f9b7	-0.0054618972
42	0x00000000	0.0
43	0x00000000	0.0
44	0x00000000	0.0
45	0x00000000	0.0
46	0xb8b4e0cc	-8.6249405e-05
47	0xbb451a33	-0.003007543
48	0x00000000	0.0
49	0x00000000	0.0
50	0xbbec323c	-0.007208137
51	0xbba472be	-0.005018561
52	0x00000000	0.0
53	0x00000000	0.0
54	0xbbaa2bf1	-0.0051932265
55	0xbbf5d5ac	-0.0075022783
56	0xbbfef491	-0.0077806194
57	0xbb887b6d	-0.004165104
58	0x00000000	0.0
59	0x00000000	0.0
60	0x00000000	0.0
61	0x3911fcf3	0.00013922509
62	0xbbf125d9	-0.007359248
63	0x00000000	0.0
64	0x00000000	0.0
65	0x00000000	0.0
66	0xbc135db5	-0.0089945095
67	0x00000000	0.0
68	0x00000000	0.0
69	0xbb56bc5a	-0.0032766075
70	0xbc031e13	-0.008002776
71	0xbb8adab8	-0.004237499
72	0xbbe90191	-0.0071107824
73	0x00000000	0.0
74	0x00000000	0.0
75	0x00000000	0.0
76	0x00000000	0.0
77	0xbc095c17	-0.008383772
78	0x00000000	0.0
79	0xbbf712b0	-0.0075400695
80	0x00000000	0.0
81	0xbc391855	-0.011297305
82	0xbb5aad93	-0.0033367618
83	0xbbc20d3a	-0.005921987
84	0x00000000	0.0
85	0xbbefaa91	-0.0073140343
86	0x00000000	0.0
87	0xb912e10a	-0.00014007479
88	0xbb91c552	-0.0044485712
89	0x00000000	0.0
90	0xbc063588	-0.008191474
91	0xbbe1ab8f	-0.0068869065
92	0xbbc9c3c7	-0.0061573717
93	0x00000000	0.0
94	0x00000000	0.0
95	0x00000000	0.0
96	0xbb90243a	-0.00439885
97	0xbc03f103	-0.008053067
98	0x00000000	0.0
99	0x00000000	0.0

exp_avg_sq f4 [1, 100]
0	0x359e4878	1.1793009e-06
1	0x332951e7	3.942287e-08
2	0x00000000	0.0
3	0x3b41056f	0.0029452702
4	0x37442f95	1.1693589e-05
5	0x36148571	2.2131392e-06
6	0x3a7bcf47	0.0009605777
7	0x3b43dba1	0.0029885548
8	0x00000000	0.0
9	0x3aa40854	0.0012514689
10	0x362d59ce	2.5831282e-06
11	0x3ad4fd5e	0.0016249826
12	0x00000000	0.0
13	0x00000000	0.0
14	0x00000000	0.0
15	0x00000000	0.0
16	0x00000000	0.0
17	0x00000000	0.0
18	0x00000000	0.0
19	0x3b54610b	0.0032406475
20	0x3568c9d7	8.672045e-07
21	0x00000000	0.0
22	0x00000000	0.0
23	0x00000000	0.0
24	0x2e9af2e5	7.046256e-11
25	0x3aae7a59	0.0013311609
26	0x370cf9f6	8.402849e-06
27	0x00000000	0.0
28	0x35766306	9.178624e-07
29	0x3602389b	1.9404458e-06
30	0x36188d98	2.2732183e-06
31	0x3ae371db	0.0017352657
32	0x3a098df9	0.0005247291
33	0x3b6b746f	0.0035927554
34	0x3ab7c66a	0.0014020924
35	0x00000000	0.0
36	0x3af4b198	0.001866865
37	0x00000000	0.0
38	0x3b569dae	0.0032747793
39	0x00000000	0.0
40	0x00000000	0.0
41	0x3a93ef67	0.0011286557
42	0x2b4f8548	7.372614e-13
43	0x00000000	0.0
44	0x00000000	0.0
45	0x00000000	0.0
46	0x3a41c2a5	0.000739137
47	0x3a3f3731	0.0007294296
48	0x311d2869	2.2869477e-09
49	0x00000000	0.0
50	0x3ae3cc7b	0.0017379666
51	0x3a97090c	0.0011523082
52	0x366ba591	3.5114101e-06
53	0x00000000	0.0
54	0x3ad6f705	0.0016400522
55	0x3b1904aa	0.0023348727
56	0x3aeef8b2	0.0018232076
57	0x3a69cc72	0.00089187094
58	0x00000000	0.0
59	0x35bc34b3	1.4022429e-06
60	0x356b9437	8.7760003e-07
61	0x39189c99	0.00014554187
62	0x3ae6f3d1	0.001762027
63	0x00000000	0.0
64	0x00000000	0.0
65	0x351e5e49	5.899679e-07
66	0x3b2ea840	0.0026650578
67	0x3209e226	8.02587e-09
68	0x00000000	0.0
69	0x3a4da9d8	0.0007845438
70	0x3b39cf75	0.0028352414
71	0x3a9066b4	0.0011016936
72	0x3af61e7b	0.0018777394
73	0x3286ea07	1.5706076e-08
74	0x33c8b1e2	9.3455824e-08
75	0x389dc592	7.523144e-05
76	0x353adb25	6.9609297e-07
77	0x3b631ccd	0.0034654618
78	0x368a74c0	4.126312e-06
79	0x3b39df0e	0.002836171
80	0x00000000	0.0
81	0x3b92663e	0.0044677546
82	0x3a8598b0	0.0010192599
83	0x3ad4fd25	0.0016249759
84	0x360071a2	1.913963e-06
85	0x3b27d5d0	0.002560962
86	0x34782fee	2.3114237e-07
87	0x39aa3653	0.000324654
88	0x3aac4845	0.0013144097
89	0x00000000	0.0
90	0x3b145d7f	0.0022638736
91	0x3b393364	0.002825939
92	0x3b052617	0.0020316893
93	0x32106fb6	8.407303e-09
94	0x34aacbf6	3.181337e-07
95	0x00000000	0.0
96	0x3a93524e	0.0011239739
97	0x3b3213e9	0.0027172512
98	0x00000000	0.0
99	0x31451aff	2.8682619e-09
