saved_models/FFnet_test_e49.pth (torch, 4737 bytes, 9 tensors)

network.0.weight f4 [16, 2]
-0.50847834 0.6165324 -0.6749297 0.0055461037 -0.66215515 -0.18116696 0.18327753 0.82379556
0.60173076 -0.7817286 0.4854113 -0.7121878 -0.66913295 0.20402859 -0.46905717 0.17218994
-0.633568 1.0807368 0.89200497 -1.0842158 -0.63814634 0.35771042 -0.35981503 0.04706516
0.65887785 -0.7910096 -0.15232891 0.6312881 -0.260355 -0.17026678 0.034812875 -0.015974583
00000000: a32b 02bf 11d5 1d3f 31c8 2cbf 17bc b53b
00000010: 0083 29bf d583 39be 1bad 3b3e 44e4 523f
00000020: 070b 1a3f 5e1f 48bf d487 f83e f151 36bf
00000030: 4c4c 2bbf dfec 503e 4328 f0be 8f52 303e
00000040: 8331 22bf 9555 8a3f 705a 643f 95c7 8abf
00000050: 8f5d 23bf d225 b73e ad39 b8be 66c7 403d
00000060: 38ac 283f 9b7f 4abf 1cfc 1bbe 199c 213f
00000070: 404d 85be 6a5a 2ebe f297 0e3d 21dd 82bc

network.0.bias f4 [16]
0.5862596 0.44977337 0.10355961 0.046387374 0.32456875 0.34497282 -0.28146347 0.085266106
0.6419629 0.4029736 0.11032333 0.58596057 0.2907752 -0.5635148 0.06819849 -0.19562307
00000000: 1c15 163f b248 e63e 1017 d43d b000 3e3d
00000010: e02d a63e 47a0 b03e fb1b 90be ff9f ae3d
00000020: ae57 243f 8e52 ce3e 33f1 e13d 8301 163f
00000030: 7de0 943e 8242 10bf a6ab 8b3d 6a51 48be

network.2.weight f4 [1, 16]
0.32320032 0.12128842 0.22153372 0.09728995 -1.6456666 -1.7209858 -0.017061174 0.1823726
0.62733626 -1.2232994 -0.22864074 0.19667408 -1.7954497 0.013631284 -0.20199999 -0.024254054
00000000: 837a a53e 1066 f83d bcd9 623e f43f c73d
00000010: 34a5 d2bf 4349 dcbf e0c3 8bbc e2bf 3a3e
00000020: 1c99 203f 1395 9cbf cc20 6abe ee64 493e
00000030: 4cd1 e5bf c055 5f3c 16d9 4ebe 70b0 c6bc

exp_avg f4 [16, 2]
-0.0025390973 -0.0038974695 0.0 0.0 0.0 0.0 -0.00075546803 -0.001164226
0.013004756 0.019924436 0.013599453 0.020836119 0.0 0.0 0.0 0.0
-0.0049402067 -0.0075779753 0.009670094 0.014812941 0.0 0.0 -0.00154034 -0.0023664883
0.014187281 0.021736952 0.0 0.0 0.0 0.0 0.0 0.0
00000000: fc66 26bb b06c 7fbb 0000 0000 0000 0000
00000010: 0000 0000 0000 0000 9a0a 46ba f198 98ba
00000020: e611 553c 9238 a33c 3dd0 5e3c 82b0 aa3c
00000030: 0000 0000 0000 0000 0000 0000 0000 0000
00000040: 75e1 a1bb aa50 f8bb 506f 1e3c fab1 723c
00000050: 0000 0000 0000 0000 3ce5 c9ba 1617 1bbb
00000060: c571 683c b111 b23c 0000 0000 0000 0000
00000070: 0000 0000 0000 0000 0000 0000 0000 0000

exp_avg_sq f4 [16, 2]
0.00034591154 0.00032911007 0.0 0.0 0.0 0.0 3.405397e-05 3.2400883e-05
0.009239542 0.008787774 0.0101383785 0.0096425135 0.0 0.0 0.0 0.0
0.0013209976 0.0012566354 0.005096658 0.0048475633 0.0 0.0 0.000121048695 0.00011520956
0.010967086 0.010430927 0.0 0.0 0.0 0.0 0.0 0.0
00000000: 765b b539 688c ac39 0000 0000 0000 0000
00000010: 0000 0000 0000 0000 2cd5 0e38 2fe6 0738
00000020: 7361 173c 98fa 0f3c 711b 263c a2fb 1d3c
00000030: 0000 0000 0000 0000 0000 0000 0000 0000
00000040: 5325 ad3a b0b5 a43a de01 a73b 4fd8 9e3b
00000050: 0000 0000 0000 0000 86db fd38 a99c f138
00000060: 4baf 333c 7be6 2a3c 0000 0000 0000 0000
00000070: 0000 0000 0000 0000 0000 0000 0000 0000

exp_avg f4 [16]
-0.003932631 0.0 0.0 -0.0011731811 0.020117454 0.021037841 0.0 0.0
-0.007648274 0.01495715 0.0 -0.0023870275 0.021947287 0.0 0.0 0.0
00000000: 4ddd 80bb 0000 0000 0000 0000 6dc5 99ba
00000010: 5ccd a43c 8d57 ac3c 0000 0000 0000 0000
00000020: 5f9e fabb d60e 753c 0000 0000 ad6f 1cbb
00000030: ccca b33c 0000 0000 0000 0000 0000 0000

exp_avg_sq f4 [16]
0.00046776916 0.0 0.0 4.6041456e-05 0.012494011 0.013709318 0.0 0.0
0.0017862864 0.0068920064 0.0 0.00016370525 0.0148300445 0.0 0.0 0.0
00000000: ea3e f539 0000 0000 0000 0000 a31c 4138
00000010: aeb3 4c3c 0c9d 603c 0000 0000 0000 0000
00000020: d321 ea3a 57d6 e13b 0000 0000 4ba8 2b39
00000030: b7f9 723c 0000 0000 0000 0000 0000 0000

exp_avg f4 [1, 16]
-0.010566615 0.0 0.0 -0.011942409 0.00070234854 0.000529929 0.0 0.0
-0.015877401 0.0011132869 0.0 -0.0048440625 0.00077628554 0.0 0.0 0.0
00000000: 981f 2dbc 0000 0000 0000 0000 18aa 43bc
00000010: d01d 383a efea 0a3a 0000 0000 0000 0000
00000020: 5311 82bc b6eb 913a 0000 0000 f1ba 9ebb
00000030: a47f 4b3a 0000 0000 0000 0000 0000 0000

exp_avg_sq f4 [1, 16]
0.002078013 0.0 0.0 0.0037437005 0.00019147985 0.000148987 0.0 0.0
0.0046751024 0.0003782939 0.0 0.00048311256 0.00020780474 0.0 0.0 0.0
00000000: 462f 083b 0000 0000 0000 0000 df58 753b
00000010: fbc7 4839 6539 1c39 0000 0000 0000 0000
00000020: 9a31 993b bf55 c639 0000 0000 454a fd39
00000030: 29e6 5939 0000 0000 0000 0000 0000 0000
