saved_models/test_FFnet_bls_e99.pth (torch, 4737 bytes, 9 tensors)

network.0.weight f4 [16, 2]
00000000: 3366 78bd 000d 12bf 605d 01bf 6097 8d3e
00000010: ea7c 87bd 1dc3 643d 8e78 d83e 71b7 29bf
00000020: 9f10 c9be d0e0 743f ed3d 593f 8cea 60bf
00000030: ce79 25bf a290 bd3e 4aa0 63bf 830b 783f
00000040: 954c 3cbf 9f86 6d3e f6de 7b3f 06c8 27bf
00000050: 18d0 793f 2530 cfbe c7ee 3ebe d3bb 923e
00000060: c97d a5bd e827 883f a52c 0c3f 2ebd 32bd
00000070: 9eb6 773e 65a8 04bf 72ee 63be e809 7b3f
-0.06064434 -0.57051086 -0.50533104 0.27654552 -0.06615622 0.055850137 0.42279476 -0.66295534
-0.39270493 0.95655537 0.84860116 -0.8785789 -0.64638984 0.3702441 -0.88916457 0.96892565
-0.73554355 0.23195885 0.98387086 -0.65539587 0.9758315 -0.4046642 -0.18645774 0.28658924
-0.08080632 1.0637178 0.5475562 -0.043637447 0.24190757 -0.5181945 -0.22258928 0.9806199

network.0.bias f4 [16]
00000000: eede bdbe b06b 7b3b d4ca 46bc 8595 59be
00000010: 0a73 983e bdf3 6c3e f3ca 033f c044 813e
00000020: ca7b 0f3f a98a 943e 9cce a7bd 5cdf 18bd
00000030: 5c77 26bf 73bd f93e aac4 d2bc 303c 08bf
-0.37084144 0.0038363747 -0.012133319 -0.21248443 0.29775268 0.23139854 0.5148155 0.25247765
0.5604826 0.2901204 -0.081937045 -0.037322387 -0.6502588 0.4877735 -0.025728542 -0.5321684

network.2.weight f4 [1, 16]
00000000: ae9a 70be 0638 7f3e e88d 01be 18c7 1cbd
00000010: d991 6d3e 41a7 cdbf a371 073f 6ff2 603f
00000020: dcb3 b83f 012a 39bf 9184 1fbf 85dc 953c
00000030: 0433 ff3e b462 96bd ee2c 673e 838d af3f
-0.23496506 0.24923715 -0.12651789 -0.038275808 0.23200168 -1.6066667 0.5290777 0.87869924
1.4429889 -0.7232972 -0.62311655 0.018293628 0.4984361 -0.07343045 0.22575733 1.3715061

exp_avg f4 [16, 2]
00000000: 0000 0000 0000 0000 0000 0000 0000 0000
00000010: 0000 0000 0000 0000 0000 0000 0000 0000
00000020: 81b3 c3ba dae9 64ba 2b3f 2a3c 74b8 c73b
00000030: b1b3 5fbb c006 03bb eeea b9bb 88e2 59bb
00000040: a2b4 18bc 8208 b3bb 5468 993b a80e 343b
00000050: 8833 843b d42b 1b3b 5ed2 07b9 a8fa 9bb8
00000060: 9be1 52bb efe8 f6ba 8581 fc39 bc1d 9539
00000070: 0000 0000 0000 0000 e82e 11bc 7f2d aabb
0.0 0.0 0.0 0.0 0.0 0.0 0.0 0.0
-0.0014930816 -0.00087323564 0.010391037 0.0060949866 -0.0034134204 -0.0019993037 -0.0056737578 -0.0033246595
-0.00932041 -0.0054636607 0.0046816263 0.0027474556 0.0040344633 0.0023677247 -0.00012952971 -7.437664e-05
-0.0032177928 -0.001883773 0.00048161685 0.00028441648 0.0 0.0 -0.008861281 -0.005193412

exp_avg_sq f4 [16, 2]
00000000: 0000 0000 0000 0000 0000 0000 0000 0000
00000010: 0000 0000 0000 0000 0000 0000 0000 0000
00000020: a1f3 2339 7930 2339 4682 f43b d631 f33b
00000030: 10b2 543a 45ab 533a 6c12 123b d15a 113b
00000040: ee69 c53b 9698 c43b e248 c63a 2e45 c53a
00000050: 34da 923a ed18 923a 68af e535 7275 e535
00000060: aabd 3e3a c0c6 3d3a ca7f 8337 8da9 8237
00000070: 0000 0000 0000 0000 0463 b33b 0e90 b23b
0.0 0.0 0.0 0.0 0.0 0.0 0.0 0.0
0.0001563565 0.00015562949 0.007461819 0.0074217124 0.00081136916 0.00080745324 0.0022288812 0.0022179375
0.0060245907 0.005999635 0.0015127922 0.0015050524 0.0011203946 0.0011146344 1.711288e-06 1.7096011e-06
0.0007276187 0.0007239394 1.5675923e-05 1.557616e-05 0.0 0.0 0.00547445 0.0054493016

exp_avg f4 [16]
00000000: 0000 0000 0000 0000 0000 0000 0000 0000
00000010: 5db1 c2ba 8980 293c fda2 5ebb dd0d b9bb
00000020: 0a03 18bc dec1 983b 3da4 833b e480 05b9
00000030: 85d9 51bb 7edb fb39 0000 0000 3384 10bc
0.0 0.0 0.0 0.0 -0.0014853884 0.010345587 -0.003397166 -0.0056474046
-0.009278068 0.0046617826 0.0040173815 -0.00012731884 -0.003202052 0.00048037985 0.0 -0.008820581

exp_avg_sq f4 [16]
00000000: 0000 0000 0000 0000 0000 0000 0000 0000
00000010: 4367 6239 4dc5 283c 39d8 923a eeaf 493b
00000020: 445c 083c d5df 083b c6bd ca3a 8a26 1f36
00000030: d3ab 833a ff6e b537 0000 0000 f0bd f73b
0.0 0.0 0.0 0.0 0.00021591508 0.010300946 0.0011203355 0.0030775028
0.008322779 0.0020885367 0.0015467934 2.371528e-06 0.0010045714 2.1628568e-05 0.0 0.007560484

exp_avg f4 [1, 16]
00000000: 0000 0000 0000 0000 0000 0000 0000 0000
00000010: 026b 43bb 5b14 70bb ea86 07ba 558f f639
00000020: 70b6 9739 05c6 bcbb 7bc8 8bbb a325 c639
00000030: f840 363a 5e09 d6bb 0000 0000 78e9 983a
0.0 0.0 0.0 0.0 -0.002981842 -0.0036633227 -0.0005169945 0.00047027567
0.0002893689 -0.0057609105 -0.0042658425 0.00037793544 0.000695243 -0.0065318784 0.0 0.0011666259

exp_avg_sq f4 [1, 16]
00000000: 0000 0000 0000 0000 0000 0000 0000 0000
00000010: a98c 223b e847 6539 d985 b239 01f8 f639
00000020: 833e b438 60f8 b03a 2903 343a 25c0 6037
00000030: 70f2 2839 2305 643b 0000 0000 a640 9938
0.0 0.0 0.0 0.0 0.0024803078 0.00021865929 0.0003405053 0.00047105554
8.5947126e-05 0.0013501756 0.0006866926 1.3396178e-05 0.00016112044 0.00347931 0.0 7.30765e-05
